mnist.pt (torch, 26914 bytes, 8 tensors)

conv.weight f4 [3, 1, 3, 3]
000000 88 0f 30 bb ff 5a 34 3e c0 3b 8c be 6b 57 7b be
       -0.0026864726 0.17612837 -0.27389336 -0.24545066
000010 7f 8a 06 be 1f 2e b8 3d 90 f2 5a bb d3 58 86 3e
       -0.1313877 0.08993172 -0.0033408739 0.26239643
000020 34 8d db bc dc 01 ac 3d 6d 41 c3 bd 43 26 f3 bd
       -0.02680073 0.08398792 -0.09533963 -0.11872532
000030 e9 5a 80 be 79 82 1e be 2f d3 25 be 41 73 7e 3e
       -0.2506936 -0.15479459 -0.16193841 0.24848653
000040 5c 58 46 3e 27 20 49 3e 16 5b 32 be 8d 1c ec bd
       0.19369644 0.19641171 -0.17417559 -0.11528883
000050 5b 69 6f 3e 88 03 2f 3e 3f e9 24 be 9e dc 7b 3e
       0.23380034 0.17091191 -0.16104601 0.24595878
000060 1c 7e 04 be 48 6e 4a 3b 07 0a 90 3e
       -0.12938732 0.0030888487 0.2813265

conv.bias f4 [3]
000000 52 55 9f be 49 fe f7 bd ac f6 21 be
       -0.31119782 -0.12109048 -0.15816754

bn.weight f4 [3]
000000 e4 f7 7f 3f 86 13 aa 3f 13 11 ca 3f
       0.99987626 1.3287208 1.5786461

bn.bias f4 [3]
000000 a5 e3 1d 3b 4a 6e 28 bc c2 d5 8d bd
       0.0024091986 -0.010280201 -0.06925537

bn.running_mean f4 [3]
000000 7c 94 79 34 28 3a 0a 3c 47 9b fc 3c
       2.324395e-07 0.008436717 0.03083576

bn.running_var f4 [3]
000000 84 ce 1f 32 8d 1e 03 3b 7f 0f 07 3c
       9.301974e-09 0.0020007223 0.008243441

fc.weight f4 [10, 588]
000000 b9 b3 83 bc a6 ef 11 3d b6 fd da bc c4 87 9b bc
       -0.01607691 0.035628937 -0.026732307 -0.018985637
000010 d2 09 ec bc 3a 35 1e bd af 38 c5 bc 44 31 11 3d
       -0.028813276 -0.03862498 -0.02407488 0.035447374
000020 66 bb 96 3c 1e b9 a3 3c 3c 04 0e 3b 51 37 ad bc
       0.018399905 0.019985732 0.0021670004 -0.021144541
000030 6d 90 e4 3b 48 b9 1d bd 0c 1f f4 bc 7f 2d ae bc
       0.0069752247 -0.038506776 -0.02979996 -0.021261929
000040 e2 22 d5 3c 36 10 c6 3c 8c d7 95 bc cb 0e d9 ba
       0.02601761 0.024177652 -0.018291257 -0.0016560195
000050 b0 d2 d7 3c 15 e3 27 3d 8e 10 86 3c ad 7e b6 3b
       0.02634558 0.040988047 0.016365316 0.0055693
000060 3e 7f e2 3c 76 ee c6 bc 8d c0 fb 3b 21 f8 02 bd
       0.027648564 -0.024283629 0.007682866 -0.031974915
000070 75 29 ea bc 9d 88 ae bc 56 d8 98 3c 93 a3 87 3c
       -0.028584221 -0.021305377 0.018657845 0.01655749
000080 45 2a c8 bc dd af 4d 3c 9b 47 ba 3c 25 f9 a9 bb
       -0.024434218 0.012554136 0.022739222 -0.005187171
000090 d4 e0 cf 3a 34 6e 1c 3c 1b 88 d1 3c 4c 2f 22 3d
       0.0015859851 0.009547759 0.025577595 0.039595887
0000a0 ac 2d 02 bd 09 a4 77 bc aa c1 84 3c a4 f2 0b 3d
       -0.031781837 -0.015114793 0.016205627 0.034166947
0000b0 8f f6 12 3d 1f 31 15 3d d8 65 0c 3c 7a cb 12 bd
       0.035879668 0.0364238 0.008569203 -0.03583858
0000c0 2a 08 73 3b 8f 90 d2 bc 8c 9d 1d bd b4 17 16 3d
       0.0037083724 -0.025703697 -0.038480327 0.0366437
0000d0 c4 69 00 3d b8 90 28 bd fd de fc 3b 83 b4 e3 bb
       0.031350866 -0.04115364 0.007717012 -0.006949009
0000e0 bb 6f de bb fb a8 9a bc 50 c1 81 3c 5d 26 c8 bc
       -0.0067882217 -0.018879404 0.015839249 -0.024432356
0000f0 b1 a4 77 3c 53 1d ab 3c 65 d6 f0 3c a2 9d 7b 3c
       0.015114949 0.020888006 0.029399106 0.015357407
000100 f0 2f 27 bd f7 e8 db bc 23 1e a7 3c 15 59 0d 3c
       -0.0408172 -0.026844485 0.020400112 0.008627196
000110 4d c9 03 bd a4 8b c2 bc 74 e6 1e 3d 5d 73 e3 3c
       -0.032174397 -0.023748226 0.038793996 0.02776497
000120 9f 5e 93 bc 11 47 2a bc 62 f0 20 bd 59 9c 58 ba
       -0.017989455 -0.01039292 -0.039291747 -0.0008263044
000130 05 23 00 bd d5 e0 02 bd 2a ce 1c bb fb a4 e7 3b
       -0.031283397 -0.031952698 -0.0023926594 0.0070692278
000140 2e d8 8a bc 1b 1b ca 3c 66 99 cd bc 0c 43 19 3d
       -0.016948786 0.024671128 -0.02509756 0.037417457
000150 62 80 e7 3c a6 73 0e bd 45 31 28 bc 69 a9 f3 3a
       0.02825946 -0.03477826 -0.010265653 0.0018589917
000160 b8 e7 c4 3b e4 9a 1f 3c d9 6a 82 3c 19 44 12 3b
       0.0060090683 0.009741519 0.01592009 0.0022318421
000170 c0 6a a5 bc f8 a3 9d 3c 82 07 22 bd 48 dd c9 bc
       -0.020192504 0.019243225 -0.03955794 -0.024641648
000180 4d 2b 29 bc e1 93 a4 bc 71 66 6c bc 79 74 0a bd
       -0.010325265 -0.020090045 -0.014428721 -0.033802483
000190 1d d3 0f bc b0 fa 10 3c 9b 67 dc bc 1e 71 0b bb
       -0.008778361 0.008848831 -0.026904872 -0.002127714
0001a0 58 78 f1 3c fd 99 8c bb fc be 92 3a 94 d6 6a bb
       0.02947633 -0.004290818 0.0011195834 -0.0035833465
0001b0 8d af 08 3c f7 bd d6 3c ce fe 1f 3d 0a 87 d6 3c
       0.008342636 0.02621363 0.03906136 0.026187439
0001c0 1e 5d 20 3d c4 94 43 bb bb f1 17 bd 51 32 a0 bc
       0.039151303 -0.002984331 -0.037095767 -0.019555243
0001d0 b1 c7 e5 3c 99 57 c4 b9 4a 59 a8 bc 9b 27 01 bd
       0.028049322 -0.00037449299 -0.020550389 -0.03153191
0001e0 e8 58 1e bd 4a 8e 0e bd 6b 14 09 bc 4d 40 b9 3c
       -0.038659006 -0.034803666 -0.008366684 0.022613669
0001f0 8e a1 b6 3c 70 ea 22 bd 02 b8 d2 3c a6 2f 04 bd
       0.022293832 -0.03977436 0.025722507 -0.032272004
000200 5f df 0e bc d2 30 89 bc ef 50 03 bc 15 45 05 bc
       -0.008720248 -0.016746912 -0.008014902 -0.008134146
000210 fe 6b 17 bd f5 e1 14 bd 80 d6 d7 bb b6 ae 12 3a
       -0.036968224 -0.036348302 -0.0065868497 0.0005595492
000220 b0 a3 99 bc b6 7a 7e 3c c3 0a 18 bd f4 83 36 bb
       -0.01875481 0.015532186 -0.03711964 -0.0027849646
000230 64 8a 14 3d ce 72 88 bc d3 83 18 3d 1d aa 74 3c
       0.036264792 -0.016656306 0.037235092 0.014933136
000240 0b d6 18 bd 84 d9 d5 3c 1a b1 9c bb 6f 74 95 bc
       -0.037313502 0.026104696 -0.0047818543 -0.018243996
000250 eb 3f 07 3d c0 86 08 bd 5b fc 93 3b 3f 7e 0d bc
       0.03301994 -0.033331633 0.004516167 -0.008636056
000260 42 3c f1 3c fd 93 3c 3c b6 50 a2 3c 45 96 6e 3c
       0.029447678 0.0115098925 0.019813877 0.014562194
000270 a7 82 22 bc 47 20 0e bc 53 35 0b bd 9a 09 b7 3c
       -0.009918845 -0.008674688 -0.0339864 0.022343446
000280 b0 1b 06 3d bc 21 e7 3c 98 60 ee bc 09 d6 f0 3a
       0.03274125 0.028214328 -0.029098794 0.0018374334
000290 21 2a ee bc 83 fc b9 bc 2d df c4 bc 01 e0 66 3c
       -0.029072823 -0.022703415 -0.0240322 0.014091493
0002a0 71 55 c9 bc b1 56 6c ba a9 26 e3 3a 72 c2 d9 3c
       -0.024576874 -0.00090156036 0.0017330247 0.026581977
0002b0 a7 63 ff bc e9 f0 e7 bc 67 2e c4 bc 22 71 ec 3c
       -0.031175448 -0.028313117 -0.023947908 0.02886254
0002c0 6d e8 72 bc a8 78 0e 3d a1 4b 74 3c ad 0d ab 3b
       -0.014825922 0.034783036 0.014910609 0.005220136
0002d0 82 e9 a1 b9 b7 98 05 bc 7d 7c a9 3b 87 50 1a bc
       -0.0003088229 -0.008154086 0.005172311 -0.009418613
0002e0 02 e2 98 b9 35 5c ac 3b 7c 22 04 bd 64 15 b1 bc
       -0.00029160088 0.0052600154 -0.03225945 -0.021616645
0002f0 18 64 08 3d 4a 17 09 bd 24 30 42 bb 42 17 27 3d
       0.03329858 -0.033469476 -0.0029630745 0.040793665
000300 89 0b 74 3c e9 cc 98 3a 5e 64 12 bd f8 56 a7 3c
       0.014895328 0.0011657748 -0.03574025 0.020427212
000310 d5 e2 ee bc 53 4e 3c bc 91 74 61 bc 1d f2 e1 bb
       -0.029160896 -0.011493283 -0.013760702 -0.006895317
000320 53 b6 a2 ba d0 82 fc 3c db 16 ae b9 c9 42 d9 3c
       -0.0012413956 0.030824095 -0.00033204895 0.026521103
000330 7a 42 7d 3c e6 71 04 bd ab df 73 3c 94 9c f4 bc
       0.015457744 -0.032335185 0.01488487 -0.029859819
000340 ac 82 8e bc 1f 28 4a 3c 1f 97 62 3c b2 15 ff 3c
       -0.017396294 0.012338667 0.013829975 0.031138275
000350 1e 4b 6f bc 59 f9 dd bb 1a c8 17 3c 18 ed 3a bd
       -0.014605312 -0.0067741093 0.0092640165 -0.045636266
000360 2e 2b 0e 3d 76 f5 17 bc 16 88 0f 3c 5c b2 17 bc
       0.034709148 -0.009274831 0.008760473 -0.009258833
000370 6b 27 d9 bc 8a 7a 81 bb 8b e9 fd 3c 1b 64 44 bc
       -0.026508054 -0.0039513754 0.030995151 -0.011986758
000380 44 d3 c6 bc 11 68 7c bc b8 75 3c bd 96 30 68 3b
       -0.024270661 -0.015405671 -0.046010703 0.003542935
000390 7c 97 fe bc 92 b2 ef bc cd f8 b9 bc c3 3e 91 3c
       -0.031078093 -0.029259954 -0.022701645 0.017730122
0003a0 26 86 07 3c a8 54 65 3a 3a 0c b8 bb 78 67 ad bc
       0.00827173 0.00087482715 -0.005616692 -0.021167502
0003b0 de 00 84 bc fe 31 41 3c d8 3a 0b 3d a0 d8 20 3c
       -0.016113695 0.011791704 0.033991665 0.009817272
0003c0 c7 7e c7 bc 4d 6e c4 bc 87 5e 37 bd 17 73 1e bc
       -0.024352444 -0.023978377 -0.044767883 -0.009670994
0003d0 ca 06 12 bd 69 3c ad bc d1 0e 74 3d fd 8f 3a bb
       -0.035651006 -0.02114697 0.059584443 -0.0028467171
0003e0 37 7d 41 bb 03 96 d8 3b 0d 7b 2a bb 98 27 e5 bc
       -0.0029524097 0.0066096797 -0.0026013285 -0.027972981
0003f0 4d d9 08 bd 6e 55 fa 3c c9 53 62 b9 44 9d cd 3c
       -0.03341036 0.030558314 -0.00021584252 0.025099404

fc.bias f4 [10]
000000 23 af 10 bd ae e3 d7 bb d9 7d e8 bc b3 1d 27 bd
       -0.035323273 -0.006588421 -0.028380321 -0.040799808
000010 73 5b 13 3a 1d 18 00 bd 9e a0 c7 bc 05 7c 32 3c
       0.0005621232 -0.031272996 -0.02436858 0.010893826
000020 84 20 9f 3c a8 79 ce 3c
       0.019424684 0.025204495
